…
2024-03-31 23:56:41.160975: E external/local_xla/xla/stream_executor/cuda/cuda_fft.cc:607] Unable to register cuFFT factory: Attempting to register factory for plugin cuFFT when one has already been registered
2024-03-31 23:56:41.162336: E external/local_xla/xla/stream_executor/cuda/cuda_blas.cc:1515] Unable to register cuBLAS factory: Attempting to register factory for plugin cuBLAS when one has already been registered
2024-03-31 23:56:42.117209: W tensorflow/compiler/tf2tensorrt/utils/py_utils.cc:38] TF-TRT Warning: Could not find TensorRT
SLURM auto-requeueing enabled. Setting signal handlers.
cuda True
NVIDIA GeForce RTX 2080 SUPER
Model:
 MoleculeModel(
  (atom_preprocess): ModuleList(
    (0): Sequential(
      (atom_linear_0): Linear(in_features=133, out_features=128, bias=True)
      (atom_bn_0): BatchNorm1d(128, eps=1e-05, momentum=0.1, affine=True, track_running_stats=True)
      (atom_activation_0): PReLU(num_parameters=1)
      (atom_dropout_0): Dropout(p=0.0, inplace=False)
    )
    (1): Sequential(
      (atom_linear_1): Linear(in_features=128, out_features=128, bias=True)
      (atom_bn_1): BatchNorm1d(128, eps=1e-05, momentum=0.1, affine=True, track_running_stats=True)
      (atom_activation_1): PReLU(num_parameters=1)
      (atom_dropout_1): Dropout(p=0.0, inplace=False)
    )
    (2): Sequential(
      (atom_linear_2): Linear(in_features=128, out_features=128, bias=True)
      (atom_bn_2): BatchNorm1d(128, eps=1e-05, momentum=0.1, affine=True, track_running_stats=True)
      (atom_activation_2): PReLU(num_parameters=1)
      (atom_dropout_2): Dropout(p=0.0, inplace=False)
    )
    (3): Sequential(
      (atom_linear_3): Linear(in_features=128, out_features=128, bias=True)
      (atom_bn_3): BatchNorm1d(128, eps=1e-05, momentum=0.1, affine=True, track_running_stats=True)
      (atom_activation_3): PReLU(num_parameters=1)
      (atom_dropout_3): Dropout(p=0.0, inplace=False)
    )
    (4): Sequential(
      (atom_linear_4): Linear(in_features=128, out_features=128, bias=True)
      (atom_bn_4): BatchNorm1d(128, eps=1e-05, momentum=0.1, affine=True, track_running_stats=True)
      (atom_activation_4): PReLU(num_parameters=1)
      (atom_dropout_4): Dropout(p=0.0, inplace=False)
    )
    (5): Sequential(
      (atom_linear_5): Linear(in_features=128, out_features=128, bias=True)
      (atom_bn_5): BatchNorm1d(128, eps=1e-05, momentum=0.1, affine=True, track_running_stats=True)
      (atom_activation_5): PReLU(num_parameters=1)
      (atom_dropout_5): Dropout(p=0.0, inplace=False)
    )
    (6): Sequential(
      (atom_linear_6): Linear(in_features=128, out_features=128, bias=True)
      (atom_bn_6): BatchNorm1d(128, eps=1e-05, momentum=0.1, affine=True, track_running_stats=True)
      (atom_activation_6): PReLU(num_parameters=1)
      (atom_dropout_6): Dropout(p=0.0, inplace=False)
    )
    (7): Sequential(
      (atom_linear_7): Linear(in_features=128, out_features=128, bias=True)
      (atom_bn_7): BatchNorm1d(128, eps=1e-05, momentum=0.1, affine=True, track_running_stats=True)
      (atom_activation_7): PReLU(num_parameters=1)
      (atom_dropout_7): Dropout(p=0.0, inplace=False)
    )
    (8): Sequential(
      (atom_linear_8): Linear(in_features=128, out_features=128, bias=True)
      (atom_bn_8): BatchNorm1d(128, eps=1e-05, momentum=0.1, affine=True, track_running_stats=True)
      (atom_activation_8): PReLU(num_parameters=1)
      (atom_dropout_8): Dropout(p=0.0, inplace=False)
    )
  )
  (cheb_convolutions): ModuleList(
    (0): ChebConv(128, 128, K=3, normalization=sym)
    (1): ChebConv(128, 128, K=3, normalization=sym)
  )
  (postprocess): ModuleList(
    (0): Sequential(
      (post_linear_0): Linear(in_features=128, out_features=128, bias=True)
      (post_bn_0): BatchNorm1d(128, eps=1e-05, momentum=0.1, affine=True, track_running_stats=True)
      (post_activation_0): PReLU(num_parameters=1)
      (post_dropout_0): Dropout(p=0.0, inplace=False)
    )
    (1): Sequential(
      (post_linear_1): Linear(in_features=128, out_features=128, bias=True)
      (post_bn_1): BatchNorm1d(128, eps=1e-05, momentum=0.1, affine=True, track_running_stats=True)
      (post_activation_1): PReLU(num_parameters=1)
      (post_dropout_1): Dropout(p=0.0, inplace=False)
    )
  )
  (output_layer): Linear(in_features=128, out_features=1, bias=True)
)
Traceback (most recent call last):
  File "/opt/anaconda/envs/torch_geom_2/lib/python3.9/site-packages/pytorch_lightning/trainer/call.py", line 38, in _call_and_handle_interrupt
    return trainer_fn(*args, **kwargs)
  File "/opt/anaconda/envs/torch_geom_2/lib/python3.9/site-packages/pytorch_lightning/trainer/trainer.py", line 650, in _fit_impl
    self._run(model, ckpt_path=self.ckpt_path)
…
